…
obs key object with shape (14,)
obs key robot0_eef_pos with shape (3,)
obs key robot0_eef_quat with shape (4,)
obs key robot0_gripper_qpos with shape (2,)

/home/amete7/miniconda3/envs/robomimic/lib/python3.8/site-packages/torch/nn/modules/transformer.py:286: UserWarning: enable_nested_tensor is True, but self.use_nested_tensor is False because encoder_layer.norm_first was True
  warnings.warn(f"enable_nested_tensor is True, but self.use_nested_tensor is False because {why_not_sparsity_fast_path}")

============= Model Summary =============
Skill_VAE (
  ModuleDict(
    (vae): SkillVAE(
      (vq): FSQ(
        (project_in): Linear(in_features=256, out_features=4, bias=True)
        (project_out): Linear(in_features=4, out_features=256, bias=True)
      )
      (action_proj): Linear(in_features=7, out_features=256, bias=True)
      (action_head): Linear(in_features=256, out_features=7, bias=True)
      (conv_block): ResidualTemporalBlock(
        (blocks): ModuleList(
          (0): Conv1dBlock(
            (block): Sequential(
              (0): CausalConv1d(
                (conv): Conv1d(256, 256, kernel_size=(5,), stride=(2,), padding=(4,))
              )
              (1): Rearrange('batch channels horizon -> batch channels 1 horizon')
              (2): GroupNorm(8, 256, eps=1e-05, affine=True)
              (3): Rearrange('batch channels 1 horizon -> batch channels horizon')
              (4): Mish()
            )
          )
          (1): Conv1dBlock(
            (block): Sequential(
              (0): CausalConv1d(
                (conv): Conv1d(256, 256, kernel_size=(3,), stride=(2,), padding=(2,))
              )
              (1): Rearrange('batch channels horizon -> batch channels 1 horizon')
              (2): GroupNorm(8, 256, eps=1e-05, affine=True)
              (3): Rearrange('batch channels 1 horizon -> batch channels horizon')
              (4): Mish()
            )
          )
          (2): Conv1dBlock(
            (block): Sequential(
              (0): CausalConv1d(
                (conv): Conv1d(256, 256, kernel_size=(3,), stride=(1,), padding=(2,))
              )
              (1): Rearrange('batch channels horizon -> batch channels 1 horizon')
              (2): GroupNorm(8, 256, eps=1e-05, affine=True)
              (3): Rearrange('batch channels 1 horizon -> batch channels horizon')
              (4): Mish()
            )
          )
        )
      )
      (encoder): TransformerEncoder(
        (layers): ModuleList(
          (0-1): 2 x TransformerEncoderLayer(
            (self_attn): MultiheadAttention(
              (out_proj): NonDynamicallyQuantizableLinear(in_features=256, out_features=256, bias=True)
            )
            (linear1): Linear(in_features=256, out_features=1024, bias=True)
            (dropout): Dropout(p=0.1, inplace=False)
            (linear2): Linear(in_features=1024, out_features=256, bias=True)
            (norm1): LayerNorm((256,), eps=1e-05, elementwise_affine=True)
            (norm2): LayerNorm((256,), eps=1e-05, elementwise_affine=True)
            (dropout1): Dropout(p=0.1, inplace=False)
            (dropout2): Dropout(p=0.1, inplace=False)
          )
        )
      )
      (decoder): TransformerDecoder(
        (layers): ModuleList(
          (0-3): 4 x TransformerDecoderLayer(
            (self_attn): MultiheadAttention(
              (out_proj): NonDynamicallyQuantizableLinear(in_features=256, out_features=256, bias=True)
            )
            (multihead_attn): MultiheadAttention(
              (out_proj): NonDynamicallyQuantizableLinear(in_features=256, out_features=256, bias=True)
            )
            (linear1): Linear(in_features=256, out_features=1024, bias=True)
            (dropout): Dropout(p=0.1, inplace=False)
            (linear2): Linear(in_features=1024, out_features=256, bias=True)
            (norm1): LayerNorm((256,), eps=1e-05, elementwise_affine=True)
            (norm2): LayerNorm((256,), eps=1e-05, elementwise_affine=True)
            (norm3): LayerNorm((256,), eps=1e-05, elementwise_affine=True)
            (dropout1): Dropout(p=0.1, inplace=False)
            (dropout2): Dropout(p=0.1, inplace=False)
            (dropout3): Dropout(p=0.1, inplace=False)
          )
        )
      )
      (add_positional_emb): Summer(
        (penc): PositionalEncoding1D()
      )
      (fixed_positional_emb): PositionalEncoding1D()
    )
  )
)

SequenceDataset: loading dataset into memory...
…
